GAT/best_model.pth (torch, 381474 bytes, 12 tensors)

gat1.att_src f4 [1, 4, 16]
00000000: ad01 82bd 33df d03e 1431 04bf 0c09 193e
00000010: 5ca0 60be f219 6bbe 07d9 a3be fcd6 4dbd
00000020: ed77 833e a92b 8a3e 200b c3bd 4d7f 08bf
00000030: 20a0 bdbe b243 473d c51a fa3e 617c ef3e
00000040: 1b4b 913e 0baa e7be b8f0 793d daff 793e
00000050: 1f69 e53e f7f9 c93d 351c 163e 7128 eabe
00000060: 4d68 ca3e e50f 5fbd aac0 ec3e dc3e b63c
00000070: 896a 183e ef75 cdbe d095 f63e e6d0 5c3e
00000080: 5a9e a3be 6815 703e a50e 82be 3513 2abe
00000090: 9ac4 c63c d9f1 953e 6059 3bbe 296d 30be
000000a0: 10bc 05bf 69cf 6a3e 5c20 b53e 7041 2abe
000000b0: 1b0b 97bc a18a 9fbe 10d3 b4be d7c3 e13e
000000c0: 5984 d6be 0b5c 88be 0cb3 5c3e b89a d2be
000000d0: 4f65 27be 4b84 b1be aa78 e03e 9f14 9e3e
000000e0: 7f13 e7be 0624 c3be a03c dfbe b0c6 c6be
000000f0: 001d d33e 0f62 b73e 6d07 85be 7b7f 533d
-0.06347976 0.40795287 -0.5163739 0.14944857 -0.21936172 -0.22959116 -0.32001516 -0.050253853
0.25677434 0.26986435 -0.09523606 -0.53319246 -0.37036228 0.048648544 0.4884855 0.4677458
0.28377613 -0.4524692 0.061020583 0.24414006 0.44806764 0.0986213 0.14659198 -0.4573398
0.395327 -0.054458518 0.4624074 0.02224677 0.1488439 -0.4012904 0.48161173 0.21564063
-0.3195675 0.23445666 -0.25401798 -0.1660889 0.024263669 0.29286078 -0.18295813 -0.17229141
-0.52240086 0.22930683 0.3537625 -0.16626525 -0.018437913 -0.31160453 -0.35317278 0.44094726
-0.41897848 -0.26632723 0.21552676 -0.41133666 -0.1634724 -0.34671244 0.4384206 0.30875108
-0.45132062 -0.3811342 -0.4360094 -0.38823462 0.41233063 0.35817 -0.25982228 0.051635247

gat1.att_dst f4 [1, 4, 16]
00000000: 0e04 64bd 25fb 483e 7af7 413d a14e 6b3e
00000010: 6449 583d cfaa 9abd eb54 a83e 9ece c63e
00000020: 9b97 8e3d 830f f8be 3b10 213e bd93 963e
00000030: 3f2e 633e ed8e d03e 8611 cc3e e536 bfbc
00000040: 41cd ae3e cddf f0bd 0c43 cb3d 64bf f53c
00000050: f26a 3fbe 1898 88bd 10c8 7dbe c441 92be
00000060: 2769 28be 7926 083d 8aa6 843d 9a43 86be
00000070: af3e 123e 57b8 2dbe 7abf 9b3e eb48 94bd
00000080: 5616 c53c 0dc5 883e 1ebc c9be 9c7c 673e
00000090: be92 afbe d0c8 133e 94cd c13d aed5 b93e
000000a0: a4be 2bbe 0245 d8be 1112 d4be 5a85 433e
000000b0: 0a5b 2abe a5c2 eb3e 9802 f4be 2f53 49bd
000000c0: 3bd3 8fbe 0a81 443d 054b e13e 4844 59be
000000d0: f1d1 1abd 7baa db3e 81eb a23e 272f 9cbe
000000e0: 74c4 e8be 46aa f23e 0452 c2be a07a 9a3e
000000f0: 2639 bfbe 8464 f13e 3502 b8be 53c7 cebe
-0.05566793 0.19627054 0.047355153 0.22979213 0.052804366 -0.075521104 0.32877287 0.3882951
0.0696251 -0.48449335 0.15728848 0.2940959 0.2218561 0.40734044 0.3985712 -0.023341605
0.3414097 -0.117614366 0.099248976 0.029998489 -0.1869314 -0.066696346 -0.24783349 -0.285658
-0.16446362 0.033239815 0.06477077 -0.2622345 0.14281724 -0.16964851 0.30419523 -0.072404705
0.024058502 0.26712838 -0.39401335 0.22606128 -0.34291643 0.14432073 0.09463039 0.36295837
-0.16771942 -0.4224015 -0.41420034 0.19093838 -0.16636291 0.4604694 -0.4765823 -0.049151596
-0.28090844 0.047974624 0.44002548 -0.21217453 -0.037797872 0.42903504 0.318203 -0.30504724
-0.45462382 0.47395533 -0.37953198 0.3017168 -0.37348288 0.47147 -0.35939184 -0.40386447

gat1.bias f4 [64]
00000000: b4ab 0bbc 1818 a3b8 954b 06bd a05b 35ba
00000010: 8288 bdb9 2612 0abb a51c 2cbc 46ad b5bc
00000020: 925f cfbb 38ea efbb a194 a73b e5ee 08bd
00000030: c111 1ebd baad e13c a22c 46bc 34bd d2bb
00000040: d297 b13b d842 afbc 3983 803b 5671 bf3a
00000050: 2691 84bc ccd1 1f3a 4974 a73c 4042 6ebc
00000060: 840e 89bb 361b 84bb e17c a0bc 40b1 823a
00000070: f0e2 e23a 2f50 713c 10ef 06bc b868 7dba
00000080: bae8 303a a24d 103c 24fe a13b 1b18 f2bb
00000090: 1087 9b3b 9ca1 b13c e68a 813b 619e 333b
000000a0: 7c34 e13b 75a1 293c 06bb 14bc 73b0 ecbb
000000b0: f5a6 213c 409b 0abc 1423 d83c a203 403c
000000c0: a0ed ff3c 4a28 0c3b 48af 273c 9b78 0abb
000000d0: 99a3 75bc 6c63 21bc ca2a 0e3b ade5 93bb
000000e0: 2060 05bc fba8 233b 9004 ea39 b785 443b
000000f0: b869 16bb 7754 7a3c 3ee7 f63b 5e94 2e3c
-0.008524824 -7.7769335e-05 -0.032786924 -0.0006918255 -0.00036150595 -0.0021067946 -0.010504876 -0.02217735
-0.0063285315 -0.007321622 0.0051141535 -0.033430953 -0.03859115 0.02754866 -0.012095602 -0.006431246
0.0054197097 -0.021394178 0.003921893 0.001460592 -0.016182493 0.0006096631 0.020441191 -0.014542162
-0.0041826386 -0.004031564 -0.019590797 0.0009971038 0.0017310064 0.01472859 -0.008235708 -0.00096667884
0.0006748546 0.008807572 0.004943626 -0.0073881275 0.0047463253 0.021683507 0.0039533256 0.0027407634
0.0068727117 0.010353436 -0.009077793 -0.007223183 0.009866466 -0.008459866 0.026383914 0.011719616
0.031241238 0.002138632 0.010234661 -0.0021129015 -0.014992618 -0.009850364 0.0021692985 -0.0045134635
-0.008140594 0.0024972546 0.00044635357 0.0029986927 -0.0022951197 0.015278927 0.0075348904 0.010655491

gat1.lin.weight f4 [64, 1433]
00000000: f54d 913d 30dd 8fbd 4461 e7bc 7f0b ca3c
00000010: a95f 9a3c babc 5abc bde4 aebc fe28 703b
00000020: 9e18 79bc f21b b93c 3907 d7bb d627 f03c
00000030: ee95 ac3c 8f22 003d 2f51 a43c c401 b9bd
00000040: 5c5c c2bd c33c 013d d22f a2bb 1619 a73b
00000050: 76f2 3bbc 8ae8 8fbc f0f0 84bb cce2 94bc
00000060: 106a 4eba 6eda 4bbd 8e6f fdbc 6115 abbd
00000070: cf3e 9ebc db87 993d e4c1 c33d ee65 97bd
00000080: aa57 dfbc 5a5c 803c ddc8 0e3d ca6e 12bc
00000090: 8893 d6ba 1249 9bbc 346a a13d be80 8fbb
000000a0: b8bf 5cbd be72 97bd 1707 573d c40a f8bb
000000b0: e861 dbba 2010 e339 48ec a03d eb60 233c
000000c0: 3763 2a3c aa09 863d 00c0 d735 d454 8abd
000000d0: a8f0 c3bc ffed 983d 65b3 62bd 7493 093d
000000e0: a50e 073d 3cfe 73bb 951f 1abc 90a5 a8bd
000000f0: 5974 473c 7d09 e13c ce20 293c 86ca 9a3d
00000100: ab0d b6bd 71ac 97bc c915 0c3d 0e59 4f3d
00000110: 4c23 b6ba 2acf a73c 4d3a 02bd 2121 ba3c
00000120: 7a16 123c 1b78 613d 863c 0b3d 3c7f c33a
00000130: 5bdb a53c 46ee f33b 32d7 933b c968 f8bc
00000140: fd82 bd3c 7cac 7abd f0fd 283c 7477 8c3d
00000150: a65c 803c 1f67 0bbd 6762 5f3d 3714 76bd
00000160: 125c 453d 8f5c 8fbd 48c1 f63c bb24 b73d
00000170: 7a6a 7abc 009c 97bd a871 e33c 1d7e 3cbc
00000180: 5b2f 6a3d 3643 813b ccac bebc 444a 06bc
00000190: 3050 5bbd 923f a93c 3e6f d5bb 8d96 afbd
000001a0: e7fe 0bbd c494 a03d 4c1a d9bb 3a21 99bd
000001b0: 6485 a4bc 8a2f e23c 06c1 1abc 8485 66bc
000001c0: afe4 123d ee15 be3c 5f20 b03d 5212 b33c
000001d0: 08a0 c0bc dfa0 a33d 9a17 47bd 38fb 8d3c
000001e0: 569c 383c 2076 993d bffe 98bc 3abc 81bd
000001f0: 509d acb9 1202 8d3c db87 a3bb 96c6 e1bc
00000200: 7977 c63b b7d2 93bd 0bd5 5e3d cb30 27bd
00000210: 5cff 933d 7a73 0a3d 90d7 2eba 0ab2 b3bd
00000220: 6da1 41bd f16f 693d dc83 3fbd c059 b13b
00000230: 6426 233d 114d ddbb 4131 92bc 6690 333d
00000240: bd28 043d 99ff e33c 645a a0bc a859 6d3c
00000250: 5490 783c f3f8 54bd 89dc 323d 4afb 893c
00000260: 07e5 643d e0b1 9dbd 5204 30bd 9e7f 0cbc
00000270: 1081 08bd e2fa 90bc 76f2 40bc 12eb 41bd
00000280: 9a1a 993c f5ac 5a3b dde5 303d 8180 af3d
00000290: db92 8c3d c9d3 903d 2d26 433d 8275 803d
000002a0: bd79 38bc d80d 303d e05b 20bd ce90 05bd
000002b0: c800 b8bd 741c 17bd 9b28 7c3c 1949 293d
000002c0: 4452 d5bc 4aac 25bb 3d72 ecbc 3d5e 8d3c
000002d0: e7e1 80bc 2c5f bd3c 515e 88bc ea1a 85bd
000002e0: 6057 39ba ca67 d2bc c0c1 7cbc 083c a8bc
000002f0: 25a7 7c3d 976d b1bd 596d 19bd 2300 b5bc
00000300: 1535 8abd b17c 0ebd f4a8 093c 5c56 ec3c
00000310: 855b ad3d ccc8 bb3a 1ebc 6fbc 31b4 3d3d
00000320: 9021 36ba d8f7 4a3d 90f0 8ab9 4d88 993d
00000330: 44bc c0bc 526d bd3c a20e 003c 4dd2 fa3b
00000340: 3f83 243c 119d 123d ff5b bebc 685e 173d
00000350: e89b eeba 232b 06bd a6a5 1bbd 5e24 663d
00000360: 0205 e73a 013c b03b 6bb2 133d 8e7d 253d
00000370: e4fe 8b3d ecde 703c 8e3b 98bc 585b bbbc
00000380: 1eb1 11bd a494 04bd 3277 cdbc 94b1 8a3d
00000390: 15d3 3cbd 2516 3f3c 018e bfbc 5b9a 74bc
000003a0: dcd4 1abd 83ce ecbc ea66 99bc 00ee 233d
000003b0: 2839 3dbd fc01 ec3c f0e3 c0bd 686b ed3c
000003c0: faee 4e3d 43d7 f6bc e029 be3c 3bed c33d
000003d0: a0ee 9dbd 1534 bb3d c33e 29bd 8194 21bc
000003e0: a937 5f3d 2475 533d 0f79 d2bc 7e03 d3bb
000003f0: da10 9a3b 0b78 bebc 3490 453c 1200 8e3c
0.07094947 -0.0702461 -0.028244622 0.024663685 0.018844442 -0.01335066 -0.021349305 0.0036645527
-0.015203623 0.022596333 -0.0065621403 0.02931587 0.021067586 0.031282958 0.020058243 -0.0903354
-0.094902724 0.031552088 -0.0049495483 0.005099426 -0.011471381 -0.017566938 -0.0040570423 -0.018174551
-0.0007874081 -0.049768858 -0.030936982 -0.08353687 -0.019317059 0.074966155 0.09558466 -0.073924884
-0.027263481 0.015669037 0.034859527 -0.008937547 -0.0016370872 -0.018955741 0.07881585 -0.004379361
-0.053893775 -0.07394932 0.052496996 -0.0075696427 -0.0016737552 0.00043308828 0.07857567 0.0099718375
0.010399631 0.06544812 1.6074628e-06 -0.06754461 -0.023918465 0.07467269 -0.055346865 0.033587888
0.03297295 -0.0037230393 -0.009406944 -0.082347035 0.012173736 0.027470345 0.010322763 0.075581595
-0.08889326 -0.018514844 0.034200463 0.05062204 -0.0013896017 0.020484526 -0.03179388 0.022720875
0.008916492 0.055046182 0.033993267 0.0014915238 0.020246198 0.007444176 0.0045117373 -0.030323403
0.02313375 -0.06119965 0.01031445 0.068587214 0.015669178 -0.03403389 0.054537203 -0.060077872
0.04818351 -0.07000076 0.03012146 0.08942553 -0.015284175 -0.074028015 0.027764156 -0.011504677
0.057174068 0.0039447797 -0.023275755 -0.008196417 -0.05354327 0.020660195 -0.0065135052 -0.08573637
-0.03417864 0.07840875 -0.0066254493 -0.074770406 -0.020083137 0.027610559 -0.009445434 -0.014069919
0.03586262 0.023203816 0.08599924 0.021859322 -0.023513809 0.07989668 -0.048606493 0.017331704
0.011267742 0.07493234 -0.01867616 -0.063347295 -0.00032923603 0.017212901 -0.0049905605 -0.027560513
0.0060567227 -0.07217925 0.054402392 -0.040818017 0.0722644 0.033801533 -0.00066696946 -0.08774193
-0.04727309 0.05699152 -0.04675661 0.0054123104 0.039831534 -0.006753572 -0.017845752 0.04383888
0.032265414 0.02783184 -0.019574352 0.014486708 0.015171129 -0.05199523 0.04366735 0.016843457
0.05588248 -0.076999426 -0.04297287 -0.008575348 -0.03332621 -0.017697755 -0.011776557 -0.04734332
0.018689442 0.003336725 0.043187965 0.08569432 0.06863948 0.07071645 0.04764383 0.06272413
-0.011259493 0.042981952 -0.03915012 -0.0326088 -0.08984524 -0.03689237 0.0153905405 0.041329477
-0.026040204 -0.0025279694 -0.028863067 0.01725685 -0.015732719 0.02311667 -0.016646536 -0.06499274
-0.000707021 -0.025684256 -0.015427053 -0.020536438 0.06168284 -0.08663481 -0.037457798 -0.022094792
-0.06748406 -0.034786884 0.008402098 0.028849773 0.084647216 0.001432681 -0.014632253 0.046314422
-0.000694775 0.04955277 -0.00026500644 0.074967004 -0.023527272 0.023123417 0.007815989 0.0076544643
0.010041057 0.03579432 -0.023237227 0.036955267 -0.0018204423 -0.032755982 -0.03799977 0.056187026
0.0017625394 0.005378247 0.036058825 0.04040294 0.06835726 0.014701586 -0.018583085 -0.022870705
-0.035569303 -0.032368317 -0.02508125 0.067721516 -0.04609974 0.0116629945 -0.023383142 -0.014929379
-0.037800655 -0.028907066 -0.018725831 0.040021896 -0.046197087 0.02880954 -0.09418476 0.02898188
0.050520875 -0.030131942 0.023213327 0.095667325 -0.0771153 0.09140793 -0.04131962 -0.009862066
0.05449644 0.051625386 -0.02569249 -0.0064396253 0.004701716 -0.0232506 0.0120583065 0.017334018

gat2.att_src f4 [1, 4, 8]
00000000: 493d 953e febe 133f 8a35 f8be 706c 793e
00000010: be6a 34be 4e0f babe a9b3 f2bd 1c88 c63e
00000020: 1588 c63e b7bc ad3d 1087 2a3f 27ec 223f
00000030: ea7c 00bd cea0 28bf aec5 ee3e ae18 5cbe
00000040: 29da cdbe fdac 9e3e 8954 2e3e 205a b1be
00000050: 6a49 5c3b 19f3 17be 800e 163f 0c1d 2d3f
00000060: 0120 32bf 1224 28be 08b3 273f 6dae 9cbe
00000070: 89be 123f a8b7 bd3d dcb7 bf3d b4ad 12bf
0.2914832 0.57713306 -0.48478347 0.24357772 -0.17618844 -0.36339802 -0.11850674 0.38775718
0.38775697 0.0848326 0.6661234 0.6364159 -0.031369127 -0.6587037 0.46635193 -0.2149379
-0.40205505 0.30991355 0.17024435 -0.34639072 0.0033613094 -0.14838828 0.58615875 0.67622447
-0.69580084 -0.1642001 0.65507555 -0.30601826 0.57321984 0.09263545 0.0936124 -0.572963

gat2.att_dst f4 [1, 4, 8]
00000000: cd2b 65be 8d6e 07bf cd1d 143d 6aaa 0c3f
00000010: 03e2 b2be a64c 1c3f a949 0dbf ad82 edbe
00000020: f312 51bd 1fb4 abbe 746d 37be be7a 29bf
00000030: e149 083f 33c3 d93e 7252 b23d 72a9 e5be
00000040: a2b7 a23e 762b 82be 1b61 9ebe 1edf c43b
00000050: 3c39 93be 81d0 be3e bea0 3a3d e98f ec3e
00000060: 0a4c d9bd 5478 103e bdf5 a63d c892 1d3f
00000070: 94aa 8abe f49d aa3e e488 383e 76a2 56be
-0.2237999 -0.5290306 0.036161233 0.5494753 -0.34938058 0.61054456 -0.5519052 -0.4638876
-0.051043462 -0.3353586 -0.17912847 -0.66202915 0.5323773 0.42531738 0.087071314 -0.4485584
0.31780726 -0.25423783 -0.3093346 0.006008043 -0.28754604 0.3726845 0.045563452 0.46203545
-0.106102064 0.14108402 0.081523396 0.61552095 -0.27083266 0.33323634 0.1802097 -0.20960411

gat2.bias f4 [32]
00000000: 377f 05bb e1b4 4e3b 8226 043c 362e 54bb
00000010: 20a0 a9bb f955 b4bb b2c7 ce3b b2cd 463c
00000020: a0fa 02bd 1427 5bbb dc19 d9bc 5c77 d639
00000030: e1f7 583b 54a2 963c e66c 92bb dca8 e3ba
00000040: ab21 1ebc a43e 473c d481 123d 00fc 513c
00000050: ef44 e43b 3be4 103c 9e49 c03a 8e34 d9bb
00000060: 940e f63b c099 0a3d 000e c1ba 7447 99bc
00000070: f080 2139 f0d3 01bd 00c4 333a a0d2 c039
-0.0020370015 0.0031540918 0.008065822 -0.0032376177 -0.005176559 -0.005503413 0.0063104266 0.0121340025
-0.031977296 -0.003344004 -0.026501589 0.0004090619 0.0033106732 0.018387951 -0.004468548 -0.001736905
-0.009651582 0.012160931 0.035768345 0.012816429 0.0069662253 0.008843477 0.0014670377 -0.0066285795
0.007509062 0.033838034 -0.0014728904 -0.01871083 0.0001540219 -0.03169626 0.00068575144 0.00036778022

gat2.lin.weight f4 [32, 64]
00000000: d6db bcbc 986a fd3d 18a6 1cbe 7808 b73c
00000010: b043 c93d 1912 53be 6464 e0bd d39f 0bbd
00000020: 4d32 f2bc 5b55 ec3d 5879 d8bc 7211 8f3d
00000030: f38b 75bd 72c6 aa3d 7900 7ebe 5f51 fe3d
00000040: 64a7 4f3e b2ac cb3d 6d1a 8a3e 4af4 3ebe
00000050: a058 24be fdb4 8fbe 1662 0b3b 5721 0fbe
00000060: 3186 dd3d d078 46be a13d 39be abcc 3d3e
00000070: 55b4 203e a1f9 84bd b31e 633e e0a1 6b3d
00000080: 2ea8 7c3e fcb3 bf3d 1766 133e 95ab 59be
00000090: b678 93bd ec4e 683c 6838 863e 5be0 443e
000000a0: db91 a93d b414 1abe 1f4e 8d3e 0046 ac3c
000000b0: e0c4 ac3d 7072 e6bd e6a8 e53c af37 953d
000000c0: d6c2 e7bd 7ecf 57be 49dd 7ebd 3298 2bbe
000000d0: 4c3c 44bd b19b 84be 4422 be3d c6c2 10bd
000000e0: e009 2ebe 53c9 633e beac 6dbe b05c d33a
000000f0: f0c2 49be e64a 453d e895 683e 8eaa 1abe
00000100: ca54 2bbd dabc f9bd e5a3 cc3d eece c63c
00000110: 1941 17be e8cc 133e fdf1 6bbe cd34 4fbd
00000120: 48eb 103d 84bf 6ebe 1fb0 603e 564c c3bd
00000130: 7cdf f63d 94f2 6a3c ac54 41be 8fe1 aabd
00000140: 05f9 0dbd 24af 0ebe 07ba 3f3e 84f1 36be
00000150: 4a68 063d a635 d73d 1397 f73d 6290 b5bd
00000160: 1dbe 773d 7e14 053e 59a8 1bbd 53e3 7bbe
00000170: 526d 463e a94a 3b3e ca61 38be 8bc3 29bd
00000180: 2016 6dbe d645 863e a9bc c63d e15b 92be
00000190: 62e5 64be edab 02bd 04e7 053e 8ae6 8a3e
000001a0: 4f7f 56bd 9e54 09be d78f c0bd b4f6 463d
000001b0: 8930 113e 584e 75be d073 6d3e 45d7 a9bd
000001c0: be6c 7e3e 8b8b 03be 15b5 353e 6966 f53d
000001d0: bd9a 013e 93c2 6ebe 4208 d6ba 4667 4dbe
000001e0: eba0 f23d 9d70 8a3e 104b 733e 0c4c 3bbd
000001f0: 8254 6ebe 82fa c83c 6f5f 003d 5970 ec3c
00000200: d555 66bd a99a 63be d40b 473d 1dae c93c
00000210: b2d6 823d 1433 26be 6c38 ecbc 3d0c 1b3e
00000220: f9bd ac3c 6f69 dc3c 4d21 52be 34f4 d93d
00000230: 5760 49be 15eb bdbd 3e30 113e d8c7 53be
00000240: 02fd 483e a174 18bd 4a2d 26be a87e 20be
00000250: eaa9 193e 09e8 043e 166a a03d cfc7 723e
00000260: e91b 54be dfd3 88be 45cd 7b3d a0da 24be
00000270: 1c86 27be 064f 953d 13b3 553d 79f3 2fbe
00000280: 5ad2 02be 67c0 d6bd 07f3 7abe 0f9a e7bc
00000290: a1a0 7abe 8673 dcbb f0d1 133e ae79 8bbe
000002a0: d8e9 f03d 2562 6a3e aa07 2b3e a1e2 3dbe
000002b0: 6346 4bbe 78c6 45be 9e4f debd 1516 fabd
000002c0: d892 83bb 4b8b 7f3e c415 81bd 3f7a 7abd
000002d0: 6abc c4bc 4fc4 c0bd c7c2 c63d af28 f73d
000002e0: f671 8bbd 57bb 66be 31e6 21be 15df 8fbe
000002f0: a65e 0e3e 00d8 6f3e 17ca 123d 95b9 1ebe
00000300: f2e1 babb afc5 4e3d 42a0 1b3d a75a 0b3d
00000310: 08dc 2c3d cb57 183d 08c4 2fbe df5b 5f3e
00000320: 00f8 c9bd e5b0 303e aad1 0ebe 000d 1cbe
00000330: 96cd 9d3c 7de5 5abe bb9d 19be 4e30 eabd
00000340: 0e82 333e 8a39 0bbe 36ed 90bc 3505 393c
00000350: c5f3 ed3d 65ac 533e 5644 7abd dc31 8abd
00000360: 38d0 0e3c 58e0 013b af8f d8bd b711 25bd
00000370: 7ac6 0fbe 31de 683e 7bae 593e 920c ac3c
00000380: 15dc 35be 9048 e1bd 02f8 d63d c8c8 1bbe
00000390: 2df9 553e 7dc2 a9bc 7864 09be 2dc9 0bbe
000003a0: 505e 123e 5450 7b3c 881a 3fbd 775e 1abe
000003b0: 6fb6 2cbd 81d5 133e e1ed 623e f2e6 b8bd
000003c0: 93bf a0bd aaa2 4e3e 9b00 f4bd 4535 95bd
000003d0: 3f73 8bbe 5aaa 57bc deb7 35be 8591 29be
000003e0: 2018 62be d880 423e f677 6f3d cd04 6b3e
000003f0: 92d8 82be 8e4b 2cbe a060 213d 27cc 61bd
-0.023054045 0.12373847 -0.15297735 0.022342905 0.098273635 -0.20612372 -0.10956648 -0.034087967
-0.029565 0.11539718 -0.026425049 0.06985749 -0.05994792 0.08338632 -0.24804868 0.12417864
0.20278698 0.099450484 0.26973286 -0.18647876 -0.16049433 -0.2806777 0.002126818 -0.13977562
0.108166106 -0.19382024 -0.18089916 0.18535106 0.15693791 -0.064929254 0.2217968 0.057527423
0.2467353 0.09360501 0.14394413 -0.2125686 -0.07200758 0.014178973 0.2621491 0.1922621
0.08279773 -0.1504696 0.27598664 0.021029472 0.084359884 -0.11252296 0.028034639 0.072860114
-0.11316459 -0.21075246 -0.062222753 -0.16757277 -0.047909066 -0.25900033 0.092838794 -0.035342
-0.16995955 0.22244768 -0.23210427 0.0016125645 -0.19703269 0.04816713 0.22713435 -0.15104124
-0.041828908 -0.12194224 0.09992198 0.024268594 -0.14770927 0.14433634 -0.2304153 -0.050587464
0.03538063 -0.23315245 0.21942185 -0.09536044 0.12054345 0.014340062 -0.18879956 -0.08343803
-0.03466131 -0.13933998 0.18723308 -0.17865568 0.0328143 0.105082795 0.12089362 -0.088654295
0.06048404 0.12996098 -0.038002346 -0.24598436 0.1937764 0.182902 -0.18006054 -0.04144625
-0.23152971 0.26225156 0.09703953 -0.28585723 -0.22353128 -0.031902242 0.13076407 0.27129012
-0.052367505 -0.13411185 -0.09402435 0.04857512 0.14178671 -0.23955667 0.2318871 -0.082930125
0.2484617 -0.128462 0.17744859 0.11982424 0.12656684 -0.23316412 -0.0016329365 -0.20058927
0.11847099 0.27039042 0.23759103 -0.04572682 -0.23274425 0.024533514 0.031341013 0.028862165
-0.0562342 -0.22226967 0.048595265 0.024619156 0.06388606 -0.16230422 -0.028835498 0.15141387
0.02108668 0.026905743 -0.20520516 0.10642281 -0.19665657 -0.09273354 0.14178559 -0.20681703
0.19627765 -0.0372206 -0.16228214 -0.15673316 0.15006223 0.1297914 0.07832734 0.23709033
-0.20713772 -0.26724145 0.061475057 -0.16099024 -0.16359752 0.07290463 0.05217273 -0.17182721
-0.12775555 -0.104859166 -0.2450677 -0.028271703 -0.24475338 -0.0067276387 0.14435554 -0.27241272
0.11763352 0.22889002 0.16702142 -0.18543483 -0.19851069 -0.19313991 -0.108550295 -0.12211243
-0.004015308 0.2495548 -0.063029796 -0.06115174 -0.024015624 -0.09412443 0.097051196 0.12068307
-0.06808846 -0.22532402 -0.15810467 -0.28099886 0.13903293 0.23422241 0.03583726 -0.15500481
-0.0057032043 0.050481495 0.03799463 0.034022 0.042202026 0.0371931 -0.17164624 0.2181239
-0.09861755 0.1725498 -0.13947168 -0.15239334 0.01926307 -0.21376605 -0.15001576 -0.11434995
0.1753008 -0.13596168 -0.017691236 0.011292745 0.11618761 0.20671232 -0.061100326 -0.06747791
0.008716635 0.0019817557 -0.105742805 -0.040300097 -0.14040557 0.2274101 0.21257965 0.021002088
-0.17759736 -0.11000168 0.104965225 -0.1521331 0.20895834 -0.020722622 -0.13417232 -0.13650961
0.1429379 0.015338976 -0.04665616 -0.15075098 -0.04216617 0.14436914 0.22161056 -0.09028424
-0.0784904 0.20179239 -0.11914178 -0.07285551 -0.27236363 -0.013163174 -0.17745921 -0.16559418
-0.22079515 0.18994462 0.058464013 0.2295105 -0.25555855 -0.16825697 0.03939879 -0.055126335

gat3.att_src f4 [1, 1, 7]
00000000: 0393 36bf 9774 4dbf c51c 173f 5043 89bd
00000010: 991a 67bc 385e f43e a0c1 d03e
-0.7131807 -0.80256027 0.59028274 -0.06702292 -0.0141054625 0.47728133 0.40772724

gat3.att_dst f4 [1, 1, 7]
00000000: 67a2 93be 4cc5 1f3f 5652 94be fa39 853d
00000010: 54df 96be 4719 fabe 9319 a5be
-0.2883484 0.62410426 -0.28969067 0.06505199 -0.2946726 -0.4884741 -0.32246074

gat3.bias f4 [7]
00000000: 68de 2c3b 07c0 ce3c f430 1bbd 3545 583b
00000010: 6c49 023d ff92 12bc 790f 04bc
0.0026377682 0.02523805 -0.037888482 0.0033000235 0.0318083 -0.008946179 -0.00806033

gat3.lin.weight f4 [7, 32]
00000000: 92a4 a6bd 950d a3be f446 153e f1c7 ab3e
00000010: cc53 3bbe cf1f 9abd 2dda 323e a9c3 5f3e
00000020: 8cf4 a23d 4924 89be 59c6 de3b e328 f7bd
00000030: 3846 dabe 06f4 babe 502b e83d d19a 6e3e
00000040: 73fb 6ebe 9e89 17bd 9de4 d2be 535b e23d
00000050: ce53 89be e0f6 8abd 93fb 16be 8f56 c83e
00000060: b9c4 44be 3e33 9d3d 3e33 04be 313b a13e
00000070: 5d50 83be cea1 8ebe cc44 aebe dee4 13be
00000080: 46b1 9bbe 190d bcbe 8494 33bd 9650 58bd
00000090: d65d 8b3e f4c6 00bd c6cf dbbd 717d 563d
000000a0: dc07 b6be f56a 483e ae4e c13e 1037 91be
000000b0: 6e72 d7be 2c5d c73e c46b 3e3b 2883 14be
000000c0: b8c3 a93e b9be 6abe 28e7 d93e 0a24 62be
000000d0: 92d7 913e 512a c9be 8378 7b3e d2ea 123e
000000e0: 3d34 73be cc65 7fbe f1a4 07be 6654 793e
000000f0: 0091 173c 17ab af3e 68d3 613e 5d56 5b3e
00000100: fb12 32bd 057c 0fbe 1e48 bbbe b5ff 8e3e
00000110: e9bb 273e ae53 acbe 44e9 0dbe 7ab7 93be
00000120: 5abf 93bd dc08 59bd f3ab 18be 0e1a 403e
00000130: 7616 5c3e 2c5c ab3e 1230 c13d d112 713d
00000140: 2ebf 493d f7e3 afbd 9e28 6c3e ef55 bcbe
00000150: 57c2 62be 869d a3be 0af0 4e3e b283 d6bd
00000160: 1486 d7be 5c5f 873b fb05 ebbd 93e8 633d
00000170: 3592 3dbe 165d 913e e97a aa3d 13f3 4f3e
00000180: bbf5 13be 46f7 dabe f718 17be 837e 893e
00000190: 905e 78be 706a bb3d 9120 b8be e6ff 713c
000001a0: 657f ccbe 6bd7 ad3e 0378 aabe f828 603e
000001b0: 1d9c 3cbe c4c2 9c3e ba44 6bbe ae26 a63e
000001c0: 573b 4cbe d6ee 3c3e 1974 b13e 8761 0a3e
000001d0: d9c4 ae3e d4b6 cf3e e0af 8dbe b03d 99be
000001e0: 83b7 8bbe 5664 103e f066 8ebe b4c5 76be
000001f0: e042 ca3e b75e 47be ef94 4b3e 5db9 983e
00000200: 923c 99be 4fd0 bbbd e80c c33e cd73 94bd
00000210: 654c 54be 1aa3 b4be 607c 8c3e 8ffb 923e
00000220: fa0c c4be 5ddc f8bd 7863 93be 7538 aabe
00000230: 1054 1dbe 6bef a53e 7f9a 69bd 79e3 dfbd
00000240: 11b4 bebe 9861 aabe ca2c 753e a6c5 b3be
00000250: fa5f df3d a65b 40be 2129 1e3e bb94 00bc
00000260: 06f8 31bd 15e1 a03e 30fe adbd 62de 24be
00000270: b3b8 aebe fb70 c5be b6aa d1bd a850 9fbd
00000280: 23c9 9a3e 2a7f 093e 7cba 91be 4694 b8bd
00000290: bf0d 953e 1651 30be 01c1 663e a061 323d
000002a0: 2613 2bbe 7e79 f1bd 46ec 67be d451 afbe
000002b0: 8ce8 a23c 4267 a73e 4ea1 b43d f768 4ebd
000002c0: 35d1 a3be 9fe1 233d a932 1e3e 5e5a 293e
000002d0: 83d4 663d c0a7 5abd b61f 9e3e bec0 08be
000002e0: 3927 643e a397 82be 3f46 48be 4792 f6bd
000002f0: 1e51 383d bc67 4b3e 05e8 99be fbea e8bd
00000300: bdee d13d d959 a8be a395 c73e 58ed 283d
00000310: a8b9 74be d8a7 90be bd47 9e3d 9476 95be
00000320: a89e 4c3e d796 9a3e b19f 9abe 1222 ea3b
00000330: 75e2 b13e 695e a7be af88 5b3d 56b7 bcbc
00000340: 638a b33e 282b 9bbe c94d 95be d3b4 be3e
00000350: 9894 c33d 9156 813e bfee 813e 8bd7 a83e
00000360: 4a1f 723e c90c 86be 95d5 cabe 42a3 02be
00000370: 2f1c 8e3e 3c22 913e 240d cabe 5fad b8be
-0.08136858 -0.318463 0.14577848 0.3355098 -0.18293685 -0.07525598 0.1746604 0.21851982
0.079568 -0.26785496 0.006798547 -0.120683454 -0.42631698 -0.365143 0.11336386 0.23301245
-0.23338108 -0.036996476 -0.41190043 0.11052575 -0.2682175 -0.06785369 -0.14744405 0.3912854
-0.19215669 0.07675789 -0.12910172 0.31490472 -0.2564725 -0.27857822 -0.34036863 -0.14442775
-0.30408686 -0.36728743 -0.043842807 -0.052811228 0.2722003 -0.031439736 -0.10732989 0.052365724
-0.3555287 0.19572051 0.3775534 -0.28362322 -0.4207949 0.38938272 0.0029055933 -0.14503157
0.33157134 -0.22924317 0.4255917 -0.2208406 0.2848478 -0.39290097 0.2455769 0.1434739
-0.23750396 -0.24941176 -0.13246514 0.24348602 0.009250879 0.3431022 0.22053301 0.21419664
-0.043475132 -0.14012153 -0.3657846 0.27929464 0.16380276 -0.33657593 -0.13858515 -0.2885092
-0.07214232 -0.052986965 -0.14909343 0.18759939 0.21492943 0.3346876 0.09432997 0.058855835
0.04925459 -0.08588403 0.23062369 -0.36784312 -0.22144447 -0.31956118 0.20208755 -0.10474338
-0.4209448 0.004131241 -0.1147575 0.055641722 -0.18512805 0.2839133 0.083242245 0.20307569
-0.14449207 -0.4276678 -0.14755617 0.26854333 -0.24254823 0.09151161 -0.35962346 0.014770484
-0.39940944 0.33953413 -0.33294687 0.21890628 -0.18418927 0.30617344 -0.22975436 0.32451385
-0.19944511 0.18450484 0.34658888 0.13513766 0.34134558 0.40569174 -0.27673244 -0.29929876
-0.27288446 0.14100775 -0.2781291 -0.24098855 0.39504147 -0.19469725 0.19881032 0.2982892
-0.29929024 -0.09170591 0.38095784 -0.0724865 -0.20732267 -0.35280687 0.2743864 0.2870755
-0.3829115 -0.12151406 -0.28786826 -0.33246198 -0.15364099 0.32409224 -0.057032105 -0.10932059
-0.37246755 -0.33277583 0.23942867 -0.3511173 0.10906978 -0.18784961 0.15445377 -0.00784796
-0.043449424 0.31421724 -0.08495748 -0.16100457 -0.3412529 -0.3856276 -0.10237639 -0.07779056
0.3023158 0.13427415 -0.2846259 -0.09012656 0.2911205 -0.17218432 0.22534563 0.043550134
-0.16706523 -0.11790751 -0.22648725 -0.34242117 0.019886278 0.32695967 0.08819829 -0.05039307
-0.3199555 0.04001009 0.15449013 0.16538379 0.05635501 -0.053382635 0.3088357 -0.13354775
0.22280587 -0.25506315 -0.19558047 -0.12039619 0.044999234 0.1986379 -0.3005983 -0.11372944
0.10250614 -0.32881048 0.3898135 0.041241974 -0.23898947 -0.28253055 0.07728527 -0.2919203
0.19982398 0.30193207 -0.3019996 0.007145175 0.34743086 -0.32689217 0.05359715 -0.02303664
0.35066518 -0.30306363 -0.29160908 0.37247333 0.095498264 0.25261357 0.2537746 0.32976946
0.23644748 -0.2618163 -0.39616075 -0.1275759 0.27755877 0.2834643 -0.3946315 -0.36069772
